…
 trainable for layer in custom_model.layers: if layer.name in layer_dict: layer.trainable = False # Do not forget to compile it custom_model.compile(loss=&#39;categorical_crossentropy&#39;, optimizer=&quot;adam&quot;, metrics=[&#39;accuracy&#39;]) . custom_model.summary() . Model: &#34;model_9&#34; _________________________________________________________________ Layer (type) Output Shape Param # ================================================================= input_23 (InputLayer) [(None, 224, 224, 3)] 0 _________________________________________________________________ block1_conv1 (Conv2D) (None, 224, 224, 64) 1792 _________________________________________________________________ block1_conv2 (Conv2D) (None, 224, 224, 64) 36928 _________________________________________________________________ block1_pool (MaxPooling2D) (None, 112, 112, 64) 0 _________________________________________________________________ block2_conv1 (Conv2D) (None, 112, 112, 128) 73856 _________________________________________________________________ block2_conv2 (Conv2D) (None, 112, 112, 128) 147584 _________________________________________________________________ block2_pool (MaxPooling2D) (None, 56, 56, 128) 0 _________________________________________________________________ block3_conv1 (Conv2D) (None, 56, 56, 256) 295168 _________________________________________________________________ block3_conv2 (Conv2D) (None, 56, 56, 256) 590080 _________________________________________________________________ block3_conv3 (Conv2D) (None, 56, 56, 256) 590080 _________________________________________________________________ block3_pool (MaxPooling2D) (None, 28, 28, 256) 0 _________________________________________________________________ block4_conv1 (Conv2D) (None, 28, 28, 512) 1180160 _________________________________________________________________ block4_conv2 (Conv2D) (None, 28, 28, 512) 2359808 _________________________________________________________________ block4_conv3 (Conv2D) (None, 28, 28, 512) 2359808 _________________________________________________________________ block4_pool (MaxPooling2D) (None, 14, 14, 512) 0 _________________________________________________________________ block5_conv1 (Conv2D) (None, 14, 14, 512) 2359808 _________________________________________________________________ block5_conv2 (Conv2D) (None, 14, 14, 512) 2359808 _________________________________________________________________ block5_conv3 (Conv2D) (None, 14, 14, 512) 2359808 _________________________________________________________________ block5_pool (MaxPooling2D) (None, 7, 7, 512) 0 _________________________________________________________________ flatten_7 (Flatten) (None, 25088) 0 _________________________________________________________________ dense_37 (Dense) (None, 1000) 25089000 _________________________________________________________________ dropout_24 (Dropout) (None, 1000) 0 _________________________________________________________________ dense_38 (Dense) (None, 500) 500500 _________________________________________________________________ dropout_25 (Dropout) (None, 500) 0 _________________________________________________________________ dense_39 (Dense) (None, 150) 75150 _________________________________________________________________ dropout_26 (Dropout) (None, 150) 0 _________________________________________________________________ dense_40 (Dense) (None, 10) 1510 _________________________________________________________________ activation_8 (Activation) (None, 10) 0 ================================================================= Total params: 40,380,848 Trainable params: 25,666,160 Non-trainable params: 14,714,688 _________________________________________________________________ . Train the new model . custom_model.fit( train_img, train_y, epochs=20, batch_size=128, validation_data=(test_img,test_y), ) . Epoch 1/20 11/11 [==============================] - 
…
